…
  #want to predict. We use softmax in order to scale all the output values betwen 0 and 1, 
  #and that the sum of all of them is equal to 1.
  layer_dense(10) %>%
  layer_activation("softmax")
@
Our model will have 3,709,002 parameters and can be visualized:
<<eval= FALSE, message = FALSE>>=
summary(model)

Model: "sequential_12"
______________________________________________________________________________
Layer (type)                       Output Shape                   Param #     
==============================================================================
conv2d_54 (Conv2D)                 (None, 32, 32, 32)             896         
______________________________________________________________________________
activation_76 (Activation)         (None, 32, 32, 32)             0           
______________________________________________________________________________
batch_normalization_52 (BatchNorma (None, 32, 32, 32)             128         
______________________________________________________________________________
conv2d_55 (Conv2D)                 (None, 30, 30, 64)             18496       
______________________________________________________________________________
activation_77 (Activation)         (None, 30, 30, 64)             0           
______________________________________________________________________________
batch_normalization_53 (BatchNorma (None, 30, 30, 64)             256         
______________________________________________________________________________
max_pooling2d_26 (MaxPooling2D)    (None, 15, 15, 64)             0           
______________________________________________________________________________
dropout_38 (Dropout)               (None, 15, 15, 64)             0           
______________________________________________________________________________
flatten_12 (Flatten)               (None, 14400)                  0           
______________________________________________________________________________
dense_24 (Dense)                   (None, 256)                    3686656     
______________________________________________________________________________
activation_78 (Activation)         (None, 256)                    0           
______________________________________________________________________________
dropout_39 (Dropout)               (None, 256)                    0           
______________________________________________________________________________
dense_25 (Dense)                   (None, 10)                     2570        
______________________________________________________________________________
activation_79 (Activation)         (None, 10)                     0           
==============================================================================
Total params: 3,709,002
Trainable params: 3,708,810
Non-trainable params: 192
______________________________________________________________________________
@

We then set our hyperparameters to use RMSprop as the optimizater with a learning rate of 1e-3 and a decay of 1e-6. We set our batch size to 64 to use train our model with 64 images per iteration. We set epoch to 10, our model will go trough the entire training set 10 times. 20\% of the training set will be used as validation set, in order to tune the parameters without biais.
…
